model.pth.tar (torch, 164115 bytes, 5 tensors)

weight_ih_l0 f4 [60, 14]
0	0xbd6b884d	-0.057503033
1	0xbdffe4fe	-0.12494849
2	0xbe2a07f8	-0.16604602
3	0xbdd85d18	-0.10564631
4	0x3d9e7022	0.077362314
5	0x3e157752	0.14596298
6	0x3bc33418	0.005957138
7	0x3e46986a	0.19394079
8	0xbe01b6fb	-0.12667458
9	0x3e254897	0.16140972
10	0x3e4f0b40	0.20219135
11	0xbd8fd587	-0.07023149
12	0xbd2a61f1	-0.04159731
13	0xbdabdcad	-0.083917
14	0x3c06a24e	0.008217407
15	0x3dd6b62b	0.104839645
16	0x3de1e7c3	0.11030533
17	0xbb6d2e30	-0.003619086
18	0xbe3b564e	-0.18294641
19	0x3d3c09ee	0.045907907
20	0xbde0b13e	-0.10971306
21	0xbe5ccb11	-0.21561839
22	0xbe587cc7	-0.21141349
23	0xbd2bfa2a	-0.041986622
24	0xbdb89ce7	-0.09014302
25	0xbe433ff7	-0.1906737
26	0xbc89e3f7	-0.016832335
27	0xbdb61a22	-0.08891703
28	0xbc3d3efc	-0.011550661
29	0xbd2c7dc2	-0.04211212
30	0xbe35c157	-0.17749535
31	0x3d44b276	0.048021756
32	0xbdecdc07	-0.115654044
33	0xbe10bc87	-0.14134417
34	0xbdfd0d9d	-0.12356112
35	0x3c1f1c53	0.009711343
36	0xbe209383	-0.15681271
37	0x3e01771c	0.12643093
38	0x3e180b13	0.14847974
39	0xbcff21a5	-0.031143973
40	0xbe0ad664	-0.13558346
41	0xbe4ee63f	-0.2020502
42	0x3c9d8c68	0.01923199
43	0x3df21e28	0.11822158
44	0xbe44b0c9	-0.19208063
45	0xbda64549	-0.08118684
46	0x3e019895	0.12655862
47	0x3e0fdd03	0.14049153
48	0xbc9ab128	-0.018883303
49	0x3da9c58b	0.082896315
50	0xbca68512	-0.020327125
51	0x3cf7b739	0.030238735
52	0x3e4e53a3	0.20149092
53	0x3de29f71	0.11065567
54	0xbd974be6	-0.07387523
55	0x3cad6d13	0.021170175
56	0xbe4d5dc2	-0.20055297
57	0xbbf878fa	-0.007582781
58	0x3dbf56f1	0.09342755
59	0xbd21e9e1	-0.039529685
60	0x3e1199c9	0.1421882
61	0xbe426191	-0.18982531
62	0x3d9c2d3f	0.076258175
63	0x3e27a1a7	0.16370259
64	0xbe0a54ee	-0.1350896
65	0x3e372a1a	0.17887154
66	0x3d1e1336	0.03859254
67	0xbbaf0891	-0.0053415974
68	0x3cec79f6	0.02886675
69	0xbe0f9964	-0.14023358
70	0x3e55c242	0.20874885
71	0x3e012d13	0.1261485
72	0x3c9ec39c	0.019380383
73	0xbe453f80	-0.19262505
74	0xbe373395	-0.1789077
75	0x3c9036a8	0.017604187
76	0x3e07c88f	0.13260101
77	0xbe0147ce	-0.12625048
78	0xbd734af6	-0.05939766
79	0x3e32e8c4	0.17471606
80	0xbd4fbd4c	-0.050717637
81	0xbd7dd9dd	-0.06197535
82	0xbd97ab5d	-0.07405732
83	0x3e23a70c	0.15981692
84	0x3bb64395	0.0055622556
85	0xbbaee706	-0.0053375987
86	0xbdfb154f	-0.12259924
87	0xbdfcf03d	-0.12350509
88	0xbc435b73	-0.011923659
89	0x3e3c905c	0.18414444
90	0x3e281e2c	0.1641776
91	0xbe14108d	-0.14459439
92	0xbdb04f62	-0.08608891
93	0x3e5afd7b	0.21385758
94	0xbe1e35c9	-0.15450205
95	0xbd8c1d8c	-0.06841573
96	0xbd9d0cb3	-0.07668438
97	0x3db42512	0.08796133
98	0x3e50e248	0.2039882
99	0xbc0afdfe	-0.008483408
100	0xbd3550d4	-0.044266537
101	0xbd9dd8cf	-0.077073686
102	0xbe616de3	-0.22014575
103	0xbe03382a	-0.12814394
104	0x3bcaf986	0.0061942963
105	0x3e372057	0.1788343
106	0xbe21ee28	-0.15813506
107	0x3e5dc783	0.21658139
108	0xbd89737e	-0.067114815
109	0xbe42af22	-0.1901212
110	0xbd45a358	-0.04825148
111	0xbda41bc7	-0.080131106
112	0x3d881fd9	0.066466995
113	0xbddf8a35	-0.10915033
114	0x3d8bc8f8	0.06825441
115	0x3e376742	0.17910483
116	0xbe3bd90a	-0.18344513
117	0x3dbf18dd	0.09330914
118	0x3de19869	0.11015398
119	0x3d093f81	0.033507828
120	0x3e2e25fb	0.17006676
121	0xbe3d1df9	-0.18468465
122	0xbd827a66	-0.06371002
123	0xbcc26f35	-0.023734668
124	0xbe504b0d	-0.2034113
125	0xbe05aa7a	-0.13053313
126	0x3e138353	0.14405565
127	0xbd2a5299	-0.041582678
128	0xbd9acbdd	-0.07558415
129	0xbe1d99fd	-0.15390773
130	0x3e33680f	0.17520164
131	0x3dda3f26	0.10656576
132	0xbe1c9f2e	-0.15295097
133	0xbc16ef08	-0.009212263
134	0x3dfe3560	0.12412524
135	0x3da1df4d	0.07903919
136	0xbe380770	-0.17971587
137	0x3dfdc780	0.12391567
138	0x3b923112	0.004461416
139	0x3e00c768	0.12576067
140	0xbe368086	-0.17822465
141	0x3e0e5013	0.13897733
142	0x3dee3c56	0.11632602
143	0xbe04d72a	-0.12972704
144	0xbd7991e9	-0.060930166
145	0xbe46836e	-0.19386074
146	0x3e0060b1	0.12536885
147	0x3e4a0d1f	0.19731568
148	0xbe18938b	-0.14900033
149	0x3db57193	0.08859553
150	0x3e49dfab	0.19714229
151	0xbe454bfd	-0.19267268
152	0xbdbfe5cc	-0.09370002
153	0x3c917944	0.01775802
154	0x3e4d1bd4	0.20030147
155	0xbe3d9b2e	-0.18516228
156	0x3e3d4491	0.18483187
157	0x3e42ac3b	0.19011013
158	0xbe1d3d21	-0.1535535
159	0x3d8d1490	0.068886876
160	0x3e538c49	0.20658983
161	0xbd98a89d	-0.074540354
162	0x3e6449ba	0.2229375
163	0xbdef579a	-0.116866305
164	0xbc94d305	-0.018167028
165	0x3e59f14b	0.21283452
166	0x3d738f0d	0.059462596
167	0xbe08458c	-0.1330778
168	0x3e5d636a	0.21619955
169	0x3e089a1b	0.13340037
170	0xbc6fb44d	-0.014630389
171	0x3e0fba73	0.14035968
172	0xbe5c24c4	-0.214984
173	0x3ce54213	0.027985608
174	0x3e2953f2	0.16535929
175	0xbe2f23a8	-0.17103446
176	0x3e5e67c6	0.21719274
177	0xbe4b1324	-0.1983152
178	0xbe299874	-0.16562063
179	0xbe47eb87	-0.1952344
180	0x3e065999	0.13120116
181	0xbe1e3ab5	-0.15452082
182	0xbe05ed7a	-0.13078871
183	0x3d74c250	0.059755623
184	0x3e62e0ad	0.2215602
185	0x3db49b2d	0.0881866
186	0xbc746381	-0.014916302
187	0xbe6137b3	-0.21993904
188	0xbe2e0005	-0.16992195
189	0xbc3f57a4	-0.01167861
190	0x3e172088	0.14758503
191	0x3d5cef05	0.053938884
192	0xbd05c280	-0.032656193
193	0xbc3dbe8d	-0.011581075
194	0x3e458cfd	0.19292064
195	0xbd2c5395	-0.042071898
196	0x3da5847b	0.08081909
197	0x3e18b98d	0.14914532
198	0x3e3ad563	0.18245463
199	0xbc5adff3	-0.013359058
200	0x3e276c5b	0.16349928
201	0xbe51fc4e	-0.20506403
202	0xbd16399a	-0.036676027
203	0x3de42a6d	0.111409046
204	0x3ca60b7c	0.020269148
205	0x3e387ba8	0.18015921
206	0x3e16ad47	0.14714538
207	0x3e2d54bc	0.16926855
208	0xbe2df402	-0.16987613
209	0xbe1642f9	-0.14673986
210	0xbdf7ca17	-0.120990925
211	0xbe255629	-0.16146149
212	0xbe053fc5	-0.13012607
213	0xbe42a6c1	-0.19008924
214	0x3e32c19b	0.17456667
215	0x3d4e229e	0.050325982
216	0xbe10f752	-0.14156845
217	0xbd984cc0	-0.07436514
218	0x3d68e517	0.056859102
219	0x3de83263	0.113377355
220	0xbe351391	-0.17683245
221	0xbb99b450	-0.0046906844
222	0xbd95bb15	-0.07311074
223	0x3e2b5ea6	0.16735324
224	0xbd18aef1	-0.037276212
225	0x3dada9cc	0.08479652
226	0xbe3e59f2	-0.18588999
227	0x3d80329e	0.062596545
228	0xbdcd5885	-0.100266494
229	0x3e02f8a3	0.1279016
230	0x3c99a5c7	0.018755807
231	0x3d062eb3	0.03275938
232	0xbc7e93fd	-0.015538213
233	0x3da124fb	0.078683816
234	0x3df8f091	0.121552594
235	0xbe495cd1	-0.19664313
236	0xbd6ae754	-0.057349518
237	0xbcd0df99	-0.025497245
238	0x3dbab336	0.09116213
239	0xbe1f2465	-0.15541227
240	0x3e1f81b2	0.15576819
241	0xbd4e5176	-0.050370656
242	0x3d25db5a	0.040492393
243	0x3d3a6f39	0.045516226
244	0xbe5838e2	-0.21115449
245	0xbcf6468d	-0.030062938
246	0x3dada9a1	0.0847962
247	0xbd6a8243	-0.057253134
248	0x3dd53a43	0.10411503
249	0xbca28591	-0.01983908
250	0x3d41bf66	0.047301672
251	0xbe3dc8fe	-0.18533704
252	0x3d22fd32	0.039792247
253	0x3dea0918	0.11427516
254	0x3c598624	0.0132766105
255	0x3e1d4310	0.15357614

weight_hh_l0 f4 [60, 20]
0	0x3e5ba9e0	0.21451521
1	0x3e446b52	0.19181564
2	0x3d277eb3	0.040892314
3	0xbe15ed65	-0.1464134
4	0xbb90c70d	-0.00441826
5	0xbe477e36	-0.1948174
6	0x3e476436	0.19471821
7	0xbe296b35	-0.16544802
8	0xbd8f1a9b	-0.069874965
9	0x3e116db5	0.14202006
10	0xbd9e7cec	-0.07738671
11	0x3e187bed	0.14891024
12	0xbe419dd8	-0.18907869
13	0x3e06095a	0.13089505
14	0xbdb02dd0	-0.08602488
15	0x3d5e4445	0.054264326
16	0x3d908c0f	0.07057964
17	0x3e4fe0d3	0.20300607
18	0xbd817a45	-0.06322149
19	0xbd135c16	-0.035976492
20	0xbd0d3869	-0.034477625
21	0xbe1dc501	-0.15407182
22	0xbc9ca3b0	-0.019121021
23	0x3d012b32	0.031535335
24	0x3e0b5456	0.1360639
25	0xbaf9d31f	-0.0019060111
26	0xbd106ca1	-0.035259847
27	0xbe5bec4d	-0.2147686
28	0x3d9f1f6e	0.077696666
29	0x3b8c9583	0.004290284
30	0x3e07c1f8	0.13257587
31	0x3d01538f	0.03157383
32	0xbd0a8021	-0.0338136
33	0xbdeae91b	-0.114702426
34	0x3dd5cd21	0.10439516
35	0xbe090f7f	-0.13384818
36	0xbe043620	-0.12911272
37	0x3e4d4025	0.20044
38	0x3d4a7950	0.0494321
39	0xbdc57ef7	-0.09643357
40	0x3dfcbf21	0.123411424
41	0xbce5e7a8	-0.028064564
42	0x3e2c7249	0.16840471
43	0x3d95b51d	0.07309935
44	0x3d951b38	0.07280582
45	0x3d019dfe	0.031644814
46	0xbe4bb701	-0.19894029
47	0x3dd1f644	0.102520496
48	0xbddbf055	-0.10739199
49	0xbbbc96f1	-0.0057552983
50	0xbe100218	-0.14063299
51	0x3d6a563d	0.05721115
52	0x3e2fb04c	0.17157096
53	0x3e24cf6a	0.16094747
54	0xbe3dccf4	-0.18535215
55	0xbda7e3a8	-0.08197719
56	0x3d62fd7b	0.05541752
57	0x3e542d1c	0.20720333
58	0x3ca6f7c8	0.020381823
59	0x3e4fef26	0.20306072
60	0xbe3527e7	-0.17691003
61	0x3d1d7b9b	0.038447957
62	0x3d35146e	0.044208936
63	0x3e5dd831	0.21664502
64	0xbe3a4192	-0.18189076
65	0xbe5c9c89	-0.21544088
66	0x3d7f9a4f	0.06240302
67	0x3e1e8414	0.15480071
68	0xbe46eb35	-0.19425662
69	0x3db49609	0.088176794
70	0x3ccdcb53	0.025121367
71	0x3d9520a7	0.072816186
72	0x3da6b3a3	0.08139732
73	0x3cf40a10	0.029789954
74	0xbe53c95c	-0.20682281
75	0xbdc71a4d	-0.09721813
76	0xbe3ac060	-0.18237448
77	0xb9a77b43	-0.0003194456
78	0x3e51afb6	0.20477185
79	0x3e51d9d7	0.20493256
80	0xbdfba93e	-0.1228814
81	0xbe09453c	-0.13405317
82	0x3e0e4e5e	0.13897082
83	0x3c2646e8	0.010148741
84	0xbca4d1ee	-0.020119634
85	0x3e1d27e8	0.15347254
86	0x3e179e68	0.14806521
87	0x3e0b8747	0.13625823
88	0xbe5d4482	-0.21608165
89	0xbe079982	-0.13242152
90	0x3d36de8b	0.044645827
91	0xbe28af9d	-0.16473241
92	0xbd8cd15b	-0.06875869
93	0x3db9d35a	0.09073515
94	0x3e47cef1	0.19512536
95	0x3db77faa	0.08959897
96	0x3dc0a34a	0.09406145
97	0xbd8e0470	-0.0693444
98	0x3e0febf0	0.14054847
99	0xbdda06d4	-0.106458336
100	0x3dd7ef83	0.1054373
101	0xbe5e1f99	-0.21691741
102	0xbe37b712	-0.1794093
103	0x3b784671	0.0037883783
104	0xbd436676	-0.047705136
105	0xbcb535db	-0.022120407
106	0xbb8ad8fc	-0.0042372923
107	0xbd8cb527	-0.068704896
108	0x3de6e0ec	0.11273369
109	0xbe41a823	-0.18911795
110	0xbdb68683	-0.08912375
111	0x3dfa8a45	0.12233404
112	0x3e5000c7	0.20312797
113	0x3d0cadb1	0.034345333
114	0x3dbfd348	0.093664706
115	0xbdec9aa3	-0.11552932
116	0xbddc1b2e	-0.107473716
117	0xbdb1aefa	-0.08675952
118	0xbdd5f35a	-0.10446806
119	0x3ce61021	0.028083863
120	0xbe4bbdf8	-0.19896686
121	0xbc342b43	-0.0109966425
122	0x3c7c4b98	0.015398882
123	0xbe5d20c4	-0.2159453
124	0x3e0ceeb4	0.13762933
125	0x3e295a0f	0.16538261
126	0xbe539269	-0.2066132
127	0xbd1aac11	-0.03776175
128	0x38bbd468	8.9564186e-05
129	0xbc8b0424	-0.016969748
130	0x3e0adf8d	0.1356184
131	0xbd6c9420	-0.05775845
132	0xbe1a20d3	-0.15051584
133	0x3d005ff0	0.031341493
134	0x3d21527f	0.039385315
135	0xbd544745	-0.05182578
136	0xbc846643	-0.016162043
137	0x3cd5f451	0.026117476
138	0x3dfb4e34	0.122707754
139	0x3e039839	0.12851037
140	0x3e00c0fa	0.12573615
141	0x3d950edd	0.072782256
142	0xbe05a0f2	-0.13049677
143	0xbde89592	-0.11356653
144	0xbe139a32	-0.1441429
145	0xbe3a5712	-0.18197277
146	0xbd1e9194	-0.038713053
147	0xbdd027f9	-0.10163874
148	0xbe08d745	-0.13363369
149	0x3e25cd02	0.16191486
150	0x3e0bbc1e	0.1364598
151	0x3e1c3e2b	0.1525809
152	0x3e4f2c67	0.20231782
153	0x3dfe775e	0.12425111
154	0xbe1b6c8f	-0.1517813
155	0xbe32294b	-0.17398565
156	0x3e4c9353	0.19978075
157	0x3e042f33	0.1290863
158	0x3db85e6f	0.09002387
159	0xbcfefe50	-0.031127125
160	0x3db132b5	0.0865225
161	0xbe64e7e3	-0.22354083
162	0x3c2e5ebc	0.010642704
163	0x3e06caee	0.13163349
164	0x3e2ba451	0.167619
165	0x3e62ebd8	0.2216028
166	0x3e413033	0.18866043
167	0x3cc1b666	0.023646545
168	0x3e150a68	0.14554751
169	0x3d925527	0.07145148
170	0x38f3e62c	0.00011630016
171	0xbd8599c3	-0.06523468
172	0x3d1c388d	0.03813987
173	0xbd8e4b39	-0.06947941
174	0x3e22240f	0.15834068
175	0xbe635cd7	-0.22203384
176	0x3e479811	0.19491602
177	0xbdcbe069	-0.09954912
178	0x3ccbf430	0.024896711
179	0xbd9772a3	-0.07394912
180	0x3d9e8fe7	0.07742291
181	0x3d4e895d	0.05042397
182	0x3dc3ef68	0.095671475
183	0x3decde47	0.115658335
184	0xbe591e63	-0.21202998
185	0x3d50cc3a	0.050976016
186	0x3be1b51d	0.0068880455
187	0xbe2cc41a	-0.16871682
188	0x3df47f06	0.1193829
189	0x3e3904d5	0.1806825
190	0x3dea055d	0.11426804
191	0xbe27d968	-0.16391528
192	0xbe2e0481	-0.16993906
193	0xbdfc4954	-0.12318674
194	0x3e1e6d4a	0.15471378
195	0xbdbf1a51	-0.09331191
196	0xbe0c731f	-0.1371579
197	0x3e4dbf84	0.20092589
198	0xbe627831	-0.22116162
199	0x3d46b0e6	0.048508547
200	0xbce8b629	-0.028407173
201	0x3ddf53e2	0.10904671
202	0x3d9dc5df	0.077037565
203	0x3cb5ded9	0.022200989
204	0xbdae5eeb	-0.08514198
205	0x3e21c7d8	0.1579889
206	0x3e50ad2c	0.2037856
207	0xbe19bc21	-0.15013172
208	0x3d31b625	0.043386597
209	0xbe2477d7	-0.1606134
210	0xbcd85972	-0.026409838
211	0xbc9ecc63	-0.019384569
212	0xbdf44738	-0.119276464
213	0x3c9b3cbe	0.018949863
214	0x3dd30303	0.10303309
215	0x3e333182	0.17499354
216	0x3e45799e	0.19284675
217	0x3c5b75e1	0.013394804
218	0xbe333bd6	-0.17503294
219	0xbcb5c742	-0.02218974
220	0x3e4cf40e	0.20014974
221	0xbe4d1341	-0.20026876
222	0x3da229bf	0.07918119
223	0xbdd55a52	-0.10417618
224	0xbe204cb9	-0.15654267
225	0x3d5ad5d5	0.053426582
226	0x3e1d4e8e	0.15361997
227	0xbcc07919	-0.023495244
228	0x3c4980f8	0.012298815
229	0xbcdc7f94	-0.026916303
230	0xbdfeeca6	-0.12447481
231	0xbdfd8395	-0.12378613
232	0x3e39f566	0.18160018
233	0x3dcb3d60	0.09923816
234	0x3e3166c5	0.1732436
235	0x3e597f5b	0.21239989
236	0xbdb25788	-0.087081015
237	0xbdabd45d	-0.083901145
238	0xbdcdecc1	-0.10054923
239	0x3ddf09f4	0.1089057
240	0xbe4690a7	-0.19391118
241	0x3d9a50b2	0.07534923
242	0x3b6ba110	0.0035954155
243	0x3de371b3	0.11105671
244	0xbe3ce936	-0.18448338
245	0xbe5aebb9	-0.21378984
246	0x3d78019a	0.060548402
247	0xbe48c774	-0.19607335
248	0xbe2bc02b	-0.16772525
249	0x3dd8be96	0.105832264
250	0xbd83dbc8	-0.06438404
251	0xbcc07f87	-0.02349831
252	0xbdca8282	-0.09888174
253	0xbc8c3947	-0.017117156
254	0x3e29a761	0.16567756
255	0x3e21afdc	0.15789741

bias_ih_l0 f4 [60]
0	0xbdcdb591	-0.10044397
1	0x3e3ba0c8	0.18323052
2	0x3e617dc9	0.2202064
3	0xbd8202a8	-0.06348163
4	0x3dc2dc9c	0.09514734
5	0xbce944c4	-0.028475173
6	0xbe4c5a62	-0.19956353
7	0x3d92106c	0.071320385
8	0x3d2bf404	0.04198076
9	0xbd339a5d	-0.043848384
10	0xbe146c98	-0.1449455
11	0x3e4dd3ad	0.20100279
12	0x3d4be3b9	0.04977772
13	0xbbfa6844	-0.007641824
14	0x3e63c3bc	0.22242635
15	0xbdbeeabe	-0.09322117
16	0xbe03947a	-0.12849608
17	0x3e55f33c	0.20893568
18	0xbe479576	-0.19490609
19	0xbe419c94	-0.18907386
20	0xbe3812c7	-0.17975913
21	0x3df0c898	0.1175701
22	0x3c0ec7ff	0.008714675
23	0xbe4c4640	-0.19948673
24	0xbd36ff4d	-0.044677068
25	0x3e1d855c	0.15382904
26	0x3e12d45c	0.14338821
27	0x3e540daa	0.20708337
28	0xbe647ed1	-0.22314002
29	0x3e1a8b61	0.15092231
30	0x3e4a14f3	0.19734554
31	0x3d8309ac	0.06398329
32	0xbe4e2b8a	-0.20133796
33	0x3d9473d2	0.072486535
34	0x3d84c044	0.06481984
35	0x3d1847c0	0.0371778
36	0xbe17bda1	-0.14818431
37	0xbdc34ae0	-0.09535766
38	0x3e2e2db6	0.17009625
39	0x3da3bd6a	0.07995112
40	0x3dd3a5d0	0.103343606
41	0x3d66f05a	0.05638156
42	0xbdefd05a	-0.11709662
43	0x3d037d0a	0.03210167
44	0xbc61f54a	-0.013791392
45	0x3cb5f72a	0.022212584
46	0x3dd616ef	0.10453593
47	0xbd91c8f7	-0.07118409
48	0xbdf55960	-0.119799376
49	0x3e3f0a2b	0.18656223
50	0xbd33e647	-0.04392078
51	0x3e274308	0.16334164
52	0xbdee0c3b	-0.116234265
53	0xbe006ee1	-0.12542297
54	0x3e4d5582	0.2005215
55	0xbe093c26	-0.13401851
56	0x3e4e2075	0.20129569
57	0x3e1c40d6	0.15259108
58	0xbde18c92	-0.1101314
59	0x3e40bb7f	0.18821524

bias_hh_l0 f4 [60]
0	0xbcfa5f44	-0.030563004
1	0xbc8eef77	-0.01744817
2	0xbd8a45cb	-0.06751593
3	0x3e31e2b4	0.17371637
4	0xbe12b0ce	-0.14325258
5	0xbe3828b3	-0.17984276
6	0xbd8b6a3e	-0.068073735
7	0x3e612874	0.21988088
8	0xbe614ed9	-0.22002734
9	0xbe36765d	-0.1781859
10	0x3e2b1ee1	0.16710998
11	0x3e0800f1	0.13281609
12	0x3c9916f3	0.0186877
13	0x3daa3795	0.08311383
14	0x3e2a672f	0.16640924
15	0x3d9441b1	0.07239092
16	0x3e178ffb	0.14801018
17	0xbd9217e3	-0.07133462
18	0xbd07d120	-0.03315842
19	0xbd48de85	-0.049040336
20	0x3e3e76ea	0.1860005
21	0xbd2e25e2	-0.042516597
22	0xbc4ede24	-0.012626205
23	0x3d938f52	0.072050706
24	0xbe330f95	-0.17486413
25	0xbdc68ce3	-0.09694841
26	0x3c1b744f	0.009488179
27	0x3e51f208	0.20502484
28	0x3bac0926	0.005250114
29	0xbe2e7a2c	-0.17038792
30	0xbc9de925	-0.019276211
31	0xbe1b174b	-0.15145604
32	0x3e5d2002	0.21594241
33	0xbdfe9155	-0.12430064
34	0xbd7486e4	-0.059698954
35	0x3d755ac2	0.059901007
36	0x3de8daae	0.11369835
37	0xbde2dec3	-0.11077645
38	0x3cb63a06	0.022244465
39	0xbe4bdae1	-0.19907714
40	0x3da63bb7	0.081168585
41	0x39dc968e	0.00042073842
42	0x3d87c603	0.066295646
43	0x3afea3a4	0.0019427431
44	0xbe30db8a	-0.17271248
45	0xbd4e7629	-0.050405655
46	0xbe42370c	-0.18966311
47	0xbd87fb7c	-0.06639764
48	0x3d016462	0.031589873
49	0x3e4ecca4	0.20195252
50	0xbdaaa3ec	-0.08332047
51	0xbdb1404a	-0.0865484
52	0xbdfb638f	-0.12274849
53	0xbe35e575	-0.17763312
54	0xbdd50197	-0.10400694
55	0x3e5a6c97	0.21330486
56	0xbdd5f0dd	-0.10446332
57	0xbe4118d1	-0.18857123
58	0x3e2365f8	0.15956867
59	0x3e428eac	0.18999738

weight f4 [1, 20]
0	0x3d65d613	0.05611236
1	0xbe1fbcd5	-0.15599377
2	0xbc11b633	-0.008893537
3	0xbe230f66	-0.15923843
4	0xbe21dc68	-0.15806735
5	0xbd64f397	-0.055896368
6	0x3dbb3744	0.091414005
7	0xbe25a638	-0.16176689
8	0xbe2e65af	-0.17030977
9	0xbc222375	-0.009896149
10	0x3e28cea9	0.16485085
11	0x3e24da8a	0.16098991
12	0xbe01f280	-0.12690163
13	0xbe05e657	-0.13076149
14	0xbcc5c50d	-0.024141813
15	0x3cec3175	0.028832177
16	0x3d794c1e	0.060863607
17	0xbe02e6dc	-0.12783378
18	0x3da06b80	0.07833004
19	0x3e366f45	0.17815883
