model.pth.tar (torch, 166931 bytes, 5 tensors)

weight_ih_l0 f4 [80, 14]
0	0xbd6b884d	-0.057503033
1	0xbdffe4fe	-0.12494849
2	0xbe2a07f8	-0.16604602
3	0xbdd85d18	-0.10564631
4	0x3d9e7022	0.077362314
5	0x3e157752	0.14596298
6	0x3bc33418	0.005957138
7	0x3e46986a	0.19394079
8	0xbe01b6fb	-0.12667458
9	0x3e254897	0.16140972
10	0x3e4f0b40	0.20219135
11	0xbd8fd587	-0.07023149
12	0xbd2a61f1	-0.04159731
13	0xbdabdcad	-0.083917
14	0x3c06a24e	0.008217407
15	0x3dd6b62b	0.104839645
16	0x3de1e7c3	0.11030533
17	0xbb6d2e30	-0.003619086
18	0xbe3b564e	-0.18294641
19	0x3d3c09ee	0.045907907
20	0xbde0b13e	-0.10971306
21	0xbe5ccb11	-0.21561839
22	0xbe587cc7	-0.21141349
23	0xbd2bfa2a	-0.041986622
24	0xbdb89ce7	-0.09014302
25	0xbe433ff7	-0.1906737
26	0xbc89e3f7	-0.016832335
27	0xbdb61a22	-0.08891703
28	0xbc3d3efc	-0.011550661
29	0xbd2c7dc2	-0.04211212
30	0xbe35c157	-0.17749535
31	0x3d44b276	0.048021756
32	0xbdecdc07	-0.115654044
33	0xbe10bc87	-0.14134417
34	0xbdfd0d9d	-0.12356112
35	0x3c1f1c53	0.009711343
36	0xbe209383	-0.15681271
37	0x3e01771c	0.12643093
38	0x3e180b13	0.14847974
39	0xbcff21a5	-0.031143973
40	0xbe0ad664	-0.13558346
41	0xbe4ee63f	-0.2020502
42	0x3c9d8c68	0.01923199
43	0x3df21e28	0.11822158
44	0xbe44b0c9	-0.19208063
45	0xbda64549	-0.08118684
46	0x3e019895	0.12655862
47	0x3e0fdd03	0.14049153
48	0xbc9ab128	-0.018883303
49	0x3da9c58b	0.082896315
50	0xbca68512	-0.020327125
51	0x3cf7b739	0.030238735
52	0x3e4e53a3	0.20149092
53	0x3de29f71	0.11065567
54	0xbd974be6	-0.07387523
55	0x3cad6d13	0.021170175
56	0xbe4d5dc2	-0.20055297
57	0xbbf878fa	-0.007582781
58	0x3dbf56f1	0.09342755
59	0xbd21e9e1	-0.039529685
60	0x3e1199c9	0.1421882
61	0xbe426191	-0.18982531
62	0x3d9c2d3f	0.076258175
63	0x3e27a1a7	0.16370259
64	0xbe0a54ee	-0.1350896
65	0x3e372a1a	0.17887154
66	0x3d1e1336	0.03859254
67	0xbbaf0891	-0.0053415974
68	0x3cec79f6	0.02886675
69	0xbe0f9964	-0.14023358
70	0x3e55c242	0.20874885
71	0x3e012d13	0.1261485
72	0x3c9ec39c	0.019380383
73	0xbe453f80	-0.19262505
74	0xbe373395	-0.1789077
75	0x3c9036a8	0.017604187
76	0x3e07c88f	0.13260101
77	0xbe0147ce	-0.12625048
78	0xbd734af6	-0.05939766
79	0x3e32e8c4	0.17471606
80	0xbd4fbd4c	-0.050717637
81	0xbd7dd9dd	-0.06197535
82	0xbd97ab5d	-0.07405732
83	0x3e23a70c	0.15981692
84	0x3bb64395	0.0055622556
85	0xbbaee706	-0.0053375987
86	0xbdfb154f	-0.12259924
87	0xbdfcf03d	-0.12350509
88	0xbc435b73	-0.011923659
89	0x3e3c905c	0.18414444
90	0x3e281e2c	0.1641776
91	0xbe14108d	-0.14459439
92	0xbdb04f62	-0.08608891
93	0x3e5afd7b	0.21385758
94	0xbe1e35c9	-0.15450205
95	0xbd8c1d8c	-0.06841573
96	0xbd9d0cb3	-0.07668438
97	0x3db42512	0.08796133
98	0x3e50e248	0.2039882
99	0xbc0afdfe	-0.008483408
100	0xbd3550d4	-0.044266537
101	0xbd9dd8cf	-0.077073686
102	0xbe616de3	-0.22014575
103	0xbe03382a	-0.12814394
104	0x3bcaf986	0.0061942963
105	0x3e372057	0.1788343
106	0xbe21ee28	-0.15813506
107	0x3e5dc783	0.21658139
108	0xbd89737e	-0.067114815
109	0xbe42af22	-0.1901212
110	0xbd45a358	-0.04825148
111	0xbda41bc7	-0.080131106
112	0x3d881fd9	0.066466995
113	0xbddf8a35	-0.10915033
114	0x3d8bc8f8	0.06825441
115	0x3e376742	0.17910483
116	0xbe3bd90a	-0.18344513
117	0x3dbf18dd	0.09330914
118	0x3de19869	0.11015398
119	0x3d093f81	0.033507828
120	0x3e2e25fb	0.17006676
121	0xbe3d1df9	-0.18468465
122	0xbd827a66	-0.06371002
123	0xbcc26f35	-0.023734668
124	0xbe504b0d	-0.2034113
125	0xbe05aa7a	-0.13053313
126	0x3e138353	0.14405565
127	0xbd2a5299	-0.041582678
128	0xbd9acbdd	-0.07558415
129	0xbe1d99fd	-0.15390773
130	0x3e33680f	0.17520164
131	0x3dda3f26	0.10656576
132	0xbe1c9f2e	-0.15295097
133	0xbc16ef08	-0.009212263
134	0x3dfe3560	0.12412524
135	0x3da1df4d	0.07903919
136	0xbe380770	-0.17971587
137	0x3dfdc780	0.12391567
138	0x3b923112	0.004461416
139	0x3e00c768	0.12576067
140	0xbe368086	-0.17822465
141	0x3e0e5013	0.13897733
142	0x3dee3c56	0.11632602
143	0xbe04d72a	-0.12972704
144	0xbd7991e9	-0.060930166
145	0xbe46836e	-0.19386074
146	0x3e0060b1	0.12536885
147	0x3e4a0d1f	0.19731568
148	0xbe18938b	-0.14900033
149	0x3db57193	0.08859553
150	0x3e49dfab	0.19714229
151	0xbe454bfd	-0.19267268
152	0xbdbfe5cc	-0.09370002
153	0x3c917944	0.01775802
154	0x3e4d1bd4	0.20030147
155	0xbe3d9b2e	-0.18516228
156	0x3e3d4491	0.18483187
157	0x3e42ac3b	0.19011013
158	0xbe1d3d21	-0.1535535
159	0x3d8d1490	0.068886876
160	0x3e538c49	0.20658983
161	0xbd98a89d	-0.074540354
162	0x3e6449ba	0.2229375
163	0xbdef579a	-0.116866305
164	0xbc94d305	-0.018167028
165	0x3e59f14b	0.21283452
166	0x3d738f0d	0.059462596
167	0xbe08458c	-0.1330778
168	0x3e5d636a	0.21619955
169	0x3e089a1b	0.13340037
170	0xbc6fb44d	-0.014630389
171	0x3e0fba73	0.14035968
172	0xbe5c24c4	-0.214984
173	0x3ce54213	0.027985608
174	0x3e2953f2	0.16535929
175	0xbe2f23a8	-0.17103446
176	0x3e5e67c6	0.21719274
177	0xbe4b1324	-0.1983152
178	0xbe299874	-0.16562063
179	0xbe47eb87	-0.1952344
180	0x3e065999	0.13120116
181	0xbe1e3ab5	-0.15452082
182	0xbe05ed7a	-0.13078871
183	0x3d74c250	0.059755623
184	0x3e62e0ad	0.2215602
185	0x3db49b2d	0.0881866
186	0xbc746381	-0.014916302
187	0xbe6137b3	-0.21993904
188	0xbe2e0005	-0.16992195
189	0xbc3f57a4	-0.01167861
190	0x3e172088	0.14758503
191	0x3d5cef05	0.053938884
192	0xbd05c280	-0.032656193
193	0xbc3dbe8d	-0.011581075
194	0x3e458cfd	0.19292064
195	0xbd2c5395	-0.042071898
196	0x3da5847b	0.08081909
197	0x3e18b98d	0.14914532
198	0x3e3ad563	0.18245463
199	0xbc5adff3	-0.013359058
200	0x3e276c5b	0.16349928
201	0xbe51fc4e	-0.20506403
202	0xbd16399a	-0.036676027
203	0x3de42a6d	0.111409046
204	0x3ca60b7c	0.020269148
205	0x3e387ba8	0.18015921
206	0x3e16ad47	0.14714538
207	0x3e2d54bc	0.16926855
208	0xbe2df402	-0.16987613
209	0xbe1642f9	-0.14673986
210	0xbdf7ca17	-0.120990925
211	0xbe255629	-0.16146149
212	0xbe053fc5	-0.13012607
213	0xbe42a6c1	-0.19008924
214	0x3e32c19b	0.17456667
215	0x3d4e229e	0.050325982
216	0xbe10f752	-0.14156845
217	0xbd984cc0	-0.07436514
218	0x3d68e517	0.056859102
219	0x3de83263	0.113377355
220	0xbe351391	-0.17683245
221	0xbb99b450	-0.0046906844
222	0xbd95bb15	-0.07311074
223	0x3e2b5ea6	0.16735324
224	0xbd18aef1	-0.037276212
225	0x3dada9cc	0.08479652
226	0xbe3e59f2	-0.18588999
227	0x3d80329e	0.062596545
228	0xbdcd5885	-0.100266494
229	0x3e02f8a3	0.1279016
230	0x3c99a5c7	0.018755807
231	0x3d062eb3	0.03275938
232	0xbc7e93fd	-0.015538213
233	0x3da124fb	0.078683816
234	0x3df8f091	0.121552594
235	0xbe495cd1	-0.19664313
236	0xbd6ae754	-0.057349518
237	0xbcd0df99	-0.025497245
238	0x3dbab336	0.09116213
239	0xbe1f2465	-0.15541227
240	0x3e1f81b2	0.15576819
241	0xbd4e5176	-0.050370656
242	0x3d25db5a	0.040492393
243	0x3d3a6f39	0.045516226
244	0xbe5838e2	-0.21115449
245	0xbcf6468d	-0.030062938
246	0x3dada9a1	0.0847962
247	0xbd6a8243	-0.057253134
248	0x3dd53a43	0.10411503
249	0xbca28591	-0.01983908
250	0x3d41bf66	0.047301672
251	0xbe3dc8fe	-0.18533704
252	0x3d22fd32	0.039792247
253	0x3dea0918	0.11427516
254	0x3c598624	0.0132766105
255	0x3e1d4310	0.15357614

weight_hh_l0 f4 [80, 20]
0	0xbe61ed3a	-0.22063151
1	0xbddf5b95	-0.1090614
2	0x3e23acbe	0.15983865
3	0xbe145551	-0.1448567
4	0x3dcbb076	0.09945767
5	0x3e2f4e92	0.17119816
6	0xbe3ab3f6	-0.18232712
7	0xbd16ca14	-0.03681381
8	0x3cce9138	0.02521573
9	0x3d9a215d	0.07525895
10	0xbd660aae	-0.05616253
11	0x3e42cf6a	0.19024435
12	0xbe3a95f1	-0.1822126
13	0xbe3de178	-0.18543041
14	0xbe5b4f35	-0.21416934
15	0x3e61220d	0.21985646
16	0x3e235360	0.15949774
17	0xbdae3add	-0.08507321
18	0xbe00f468	-0.12593234
19	0x3e2b276c	0.16714257
20	0x3d922343	0.07135632
21	0xbe5caf5c	-0.2155127
22	0xbe5f7c42	-0.21824744
23	0xbe087464	-0.1332565
24	0x3e1d0fcd	0.15338059
25	0xbdb84b5f	-0.08998751
26	0x3c95cb64	0.01828546
27	0xbe4f4dc8	-0.20244515
28	0xbe07f615	-0.13277467
29	0xbde0d46b	-0.109780155
30	0x3e03f14b	0.12885015
31	0x3e25e022	0.16198781
32	0x3dea93a9	0.11453945
33	0x3e1569a9	0.14591087
34	0x3d03bf65	0.03216495
35	0xbd37b7d5	-0.04485305
36	0x3e40d6c7	0.18831931
37	0xbe58ea9e	-0.2118325
38	0x3cb592c4	0.02216471
39	0xbe1149e1	-0.14188339
40	0xbe07ac77	-0.13249384
41	0x3d8169fd	0.06319044
42	0x3d8416c2	0.06449653
43	0xbdcc27ac	-0.09968504
44	0x3e41c5b0	0.18923068
45	0x3d627b82	0.055293567
46	0xbdb63fe5	-0.08898906
47	0xbd1d646f	-0.03842586
48	0xbe2d46e6	-0.16921577
49	0x3d52e607	0.051488902
50	0xbd88ecc8	-0.066857874
51	0x3e4cde67	0.20006715
52	0x3e4642fd	0.19361492
53	0xbcb1a5c4	-0.021685489
54	0x3e29c0e8	0.16577494
55	0x3e02153e	0.12703416
56	0x3e60f123	0.21966986
57	0x3e19c57b	0.15016739
58	0xbd1f2b2b	-0.038859528
59	0xbd72d5b5	-0.05928584
60	0x3e277529	0.16353287
61	0xbe45b0dd	-0.19305749
62	0x3e1dad8e	0.15398237
63	0xbe095e59	-0.13414897
64	0x3e1214f9	0.14265813
65	0x3e0e7039	0.13909997
66	0x3e12df7d	0.14343067
67	0xbe1a75cd	-0.15084
68	0xbe080c6c	-0.13285989
69	0xbe2f6434	-0.17128068
70	0x3c80e865	0.015735814
71	0x3deb8ca9	0.11501438
72	0x3e606028	0.2191168
73	0xbd72ed54	-0.059308365
74	0xbdf77957	-0.120836906
75	0x3e052126	0.13000926
76	0x3c8bac76	0.01705001
77	0xbcbc3895	-0.0229762
78	0xbe4b11a2	-0.19830945
79	0x3b17ca64	0.0023161406
80	0xbe08677a	-0.13320723
81	0x3d913807	0.070907645
82	0xbd9cbc85	-0.07653145
83	0xbd9209e5	-0.071307935
84	0xbda0400c	-0.07824716
85	0xbe1ab8b7	-0.15109526
86	0x3d7896d4	0.060690716
87	0x3d2fe381	0.042941574
88	0x3da48841	0.08033801
89	0xbd178ce6	-0.036999606
90	0x3e352403	0.17689519
91	0xbd287bc4	-0.041133657
92	0xbd8eb88a	-0.06968792
93	0x3e127cee	0.1430547
94	0x3e601919	0.21884574
95	0x3df2e8b7	0.11860793
96	0xbe133603	-0.14376073
97	0xbe152e73	-0.145685
98	0xbdf8cc3e	-0.12148331
99	0x3cfcc909	0.03085758
100	0x3e449a2c	0.19199437
101	0x3e0f22a8	0.13978064
102	0xbcb9179f	-0.022594271
103	0xbe256528	-0.1615187
104	0xbe250fb4	-0.16119272
105	0xbcc6bd89	-0.0242603
106	0xbd5d7e3d	-0.05407547
107	0x3e549ae5	0.20762213
108	0x3d983f81	0.074339874
109	0x3e414d2d	0.18877096
110	0x3c5ea3b2	0.013588833
111	0xbdc1349f	-0.09433865
112	0x3c98a835	0.018634895
113	0x3e574c6a	0.21025243
114	0x3e3cd0b4	0.18438989
115	0xbdd0f118	-0.10202235
116	0x3e4653e1	0.19367935
117	0xbe05c1ca	-0.13062206
118	0x3e559584	0.20857817
119	0x3df7048c	0.12061414
120	0x3e5183fa	0.20460501
121	0xbd72f8b4	-0.059319213
122	0xbd1ec213	-0.038759302
123	0x3d1c4ecd	0.038161088
124	0x3d9ceed5	0.07662741
125	0x3e257460	0.16157675
126	0xbdcd82b6	-0.10034697
127	0x3e548524	0.20753914
128	0x3e29d20d	0.16584034
129	0x3e13029c	0.14356464
130	0xbdf98f45	-0.121855296
131	0x3e1f2b46	0.15543851
132	0x3e1f5084	0.15558058
133	0x3e0ad216	0.13556704
134	0x3e0c6422	0.13710073
135	0x3e4024eb	0.18764083
136	0x3debd5cb	0.11515387
137	0x3d1c1d86	0.038114093
138	0x3df55d7f	0.119807236
139	0xbe2b0593	-0.16701345
140	0x3de5b5e0	0.112163305
141	0x3e246338	0.16053474
142	0xbd640463	-0.055668246
143	0x3d251214	0.040300444
144	0x3d06ac48	0.032879144
145	0xbd9a9a20	-0.07548928
146	0xbb22123e	-0.0024730111
147	0xbd8b699d	-0.068072535
148	0x3dcc7e15	0.09984986
149	0x3ccac77e	0.024753328
150	0x3daa600f	0.08319103
151	0x3d8cff0e	0.06884585
152	0xbb708222	-0.003669866
153	0x3e01aeaa	0.12664285
154	0x3e4a3062	0.19745019
155	0x3db545b8	0.088511884
156	0x3de18fe2	0.110137716
157	0x3dacf144	0.08444455
158	0xbd25d8dd	-0.04049002
159	0x3e279f06	0.16369256
160	0x3dda3d23	0.10656192
161	0xbe5a1967	-0.21298753
162	0xbd98cad3	-0.07460561
163	0xbdbc663d	-0.09199188
164	0x3dccf801	0.100082405
165	0x3cc3e9b8	0.023915157
166	0xbd844c65	-0.064598836
167	0xbd9f0ba4	-0.07765892
168	0xbd067217	-0.03282365
169	0xbe184830	-0.14871287
170	0x3d2c2801	0.04203034
171	0xbe00aa30	-0.12564921
172	0x3d8ac482	0.06775762
173	0x3e25a96d	0.16177912
174	0x3dd48af8	0.10378069
175	0xbe1ff1f4	-0.15619642
176	0x3e479cb7	0.19493376
177	0x3df65efb	0.12029835
178	0xbc42e664	-0.01189575
179	0x3e04cf22	0.1296964
180	0x3dbcb550	0.0921427
181	0x3da527e9	0.08064253
182	0xbda3c776	-0.079970285
183	0xbe2d1c3b	-0.169053
184	0xbe5ef844	-0.21774393
185	0x3dda2920	0.10652375
186	0xbe249db8	-0.1607579
187	0xbdb94072	-0.09045495
188	0x3e575ca9	0.21031441
189	0xbe2d17ba	-0.16903582
190	0xbe5ada2c	-0.21372288
191	0x3dedd58f	0.11612999
192	0x3e3cf21d	0.18451734
193	0xbe07a38f	-0.13245986
194	0xbb2c9605	-0.0026334536
195	0xbcf791f0	-0.030220956
196	0xbe19c8be	-0.15017983
197	0x3e62d6d3	0.22152261
198	0xbe2de15b	-0.16980498
199	0xbc7cf5df	-0.01543948
200	0xbe47dc8e	-0.19517729
201	0xbe37afb5	-0.1793812
202	0xbe4999ec	-0.19687623
203	0xbe5472a3	-0.20746855
204	0x3e30cea2	0.17266324
205	0x3e4763c7	0.19471656
206	0x3e17a339	0.14808358
207	0x3e330166	0.17481002
208	0xbce7da78	-0.028302416
209	0xbde21071	-0.11038292
210	0x3de3c63d	0.11121795
211	0x3e468034	0.19384843
212	0xbe240c01	-0.16020204
213	0x3d66075a	0.056159355
214	0xbd16d5f5	-0.03682514
215	0xbded4c88	-0.11586863
216	0xbe36bb5a	-0.17844906
217	0x3e3df770	0.18551421
218	0x3e45bed7	0.19311081
219	0x3d821db3	0.06353321
220	0x3e0a16ef	0.13485311
221	0xbd972b12	-0.07381262
222	0xbd7a589d	-0.061119664
223	0xbe23ed6d	-0.1600854
224	0x3e628c6f	0.22123884
225	0xbe0d45ab	-0.13796107
226	0x3e19efa7	0.15032826
227	0xbd77ac3d	-0.060466994
228	0xbe4066d5	-0.18789227
229	0x3cc499b2	0.023999069
230	0xbe113e77	-0.14183985
231	0xbe3881f4	-0.18018323
232	0x3dc97bf0	0.09838092
233	0x3e16e396	0.14735255
234	0x3d895e87	0.06707483
235	0x3d598fc2	0.053115614
236	0xbda9d1e2	-0.08291985
237	0x3e34ac08	0.1764375
238	0x3a1cb6a3	0.0005978143
239	0xbd121cb9	-0.035671923
240	0xbc956c87	-0.018240226
241	0x3e099011	0.13433863
242	0x3e06b103	0.13153462
243	0x3e3553be	0.17707726
244	0x3dfc7223	0.12326457
245	0xbe49cd25	-0.19707163
246	0xbe12d338	-0.14338386
247	0x3e3e4165	0.18579634
248	0xbe399651	-0.18123747
249	0xbd60fefc	-0.054930672
250	0x3d760496	0.060062967
251	0xbd8843c4	-0.0665355
252	0x3d208fb5	0.03919955
253	0x3d0eec5c	0.03489338
254	0x3e568e05	0.20952614
255	0xbd77bd10	-0.06048304

bias_ih_l0 f4 [80]
0	0x3e11637c	0.14198107
1	0x3e61bc5e	0.22044513
2	0x3e197e1f	0.14989518
3	0xbd4cd5e4	-0.05000867
4	0x3d888b8e	0.06667243
5	0xbd5a7eef	-0.05334371
6	0xbdec93a3	-0.11551597
7	0x3e22dde9	0.15904965
8	0x3e364deb	0.17803161
9	0x3dd59a4d	0.10429821
10	0xbdf2b70f	-0.11851322
11	0xbe21b8f4	-0.1579321
12	0x3c962ebb	0.01833283
13	0x3e288b86	0.16459474
14	0xbdb0cb46	-0.08632521
15	0xbdb7be06	-0.08971791
16	0xbc971eb7	-0.018447263
17	0xbe47cbfc	-0.19511408
18	0xbe2fe602	-0.17177585
19	0xbe2fdeaf	-0.17174791
20	0x3d5fe858	0.05466494
21	0x3d9e63a8	0.07733852
22	0x3df5c2b5	0.12000028
23	0xbe0c23b4	-0.13685495
24	0xbe0c3338	-0.13691413
25	0x3e4e6ad0	0.20157933
26	0x3e3f54c5	0.18684681
27	0x3e11674b	0.1419956
28	0xbd194d1e	-0.03742706
29	0x3e2f58d9	0.17123736
30	0xbd8c8de6	-0.068630025
31	0x3e17651e	0.14784667
32	0xbdf57e73	-0.11987009
33	0xbd3a3cb0	-0.045468032
34	0xbe477dbb	-0.19481556
35	0x3dc75b95	0.09734265
36	0x3dc62d72	0.09676637
37	0xbe3a6fbd	-0.18206687
38	0xbcd8b520	-0.026453555
39	0x3e35e499	0.17762984
40	0xbe099489	-0.13435568
41	0x3dea7312	0.11447729
42	0xbe49d13b	-0.19708721
43	0xbe30ae0d	-0.17253895
44	0xbd8206ef	-0.06348979
45	0xbdccb948	-0.09996277
46	0x3e5bb9dd	0.2145762
47	0xbe535729	-0.20638718
48	0x3d30f30c	0.043200538
49	0xbd4f5f3e	-0.05062794
50	0x3da0957f	0.07841014
51	0xbd9b22f1	-0.07575024
52	0x3c34a458	0.011025511
53	0xbe3290ba	-0.17438021
54	0x3e01459a	0.12624207
55	0x3e48aa30	0.19596171
56	0xbdf4d535	-0.119547285
57	0x3a077fad	0.00051688665
58	0x3e112df0	0.1417768
59	0xbe14bcf0	-0.14525199
60	0xbd0957a0	-0.03353083
61	0x3d909e3a	0.07061429
62	0xbd86270e	-0.06550418
63	0xbd0a6c48	-0.03379467
64	0x3b9e9abf	0.0048402245
65	0xbdbf05ed	-0.09327302
66	0xbe61fbaf	-0.22068666
67	0xbc8d8f1d	-0.017280156
68	0xbd83c1ac	-0.06433424
69	0xbd1039a6	-0.035211228
70	0xbc1e7d74	-0.009673465
71	0x3e2194ae	0.15779373
72	0xbca9f615	-0.020747224
73	0xbc2d3252	-0.010571079
74	0xbc6f01a4	-0.0145877935
75	0xbdfc1bf7	-0.12310021
76	0x3c09631d	0.008385447
77	0xbe08f0d2	-0.13373116
78	0xbe27981b	-0.16366617
79	0x3e51de8f	0.20495056

bias_hh_l0 f4 [80]
0	0x3e4ed547	0.20198546
1	0xbc743eb9	-0.014907532
2	0x3e1f895e	0.15579745
3	0xbe4b1266	-0.19831237
4	0x3e0b7c62	0.13621667
5	0xbe4f94ee	-0.20271656
6	0xbde92629	-0.113842316
7	0xbb28126b	-0.0025645744
8	0x3d15618b	0.036469977
9	0x3e43e54d	0.1913044
10	0x3e38f127	0.18060742
11	0x3e35f789	0.17770208
12	0xbe5c46e5	-0.21511419
13	0x3cdcf68a	0.026973028
14	0xbe3c5e19	-0.1839527
15	0x3d9114c1	0.070840366
16	0x3d44e249	0.048067365
17	0xbdea2956	-0.114336655
18	0xbdeef4e1	-0.11667801
19	0x3e12a059	0.1431898
20	0xbe0f4441	-0.1399088
21	0xbb7852f7	-0.0037891248
22	0xbb46997a	-0.0030303882
23	0xbe4b2c3c	-0.19841093
24	0xbd2333ba	-0.039844252
25	0xbd23c858	-0.039985985
26	0xbe27f105	-0.16400535
27	0xbd58fc58	-0.05297503
28	0x3d8ff96e	0.07029997
29	0xbd2aa8c5	-0.041664857
30	0xbe4fe441	-0.20301916
31	0x3d154c1a	0.03644953
32	0x3d5875a6	0.052846573
33	0x3c602e23	0.013682875
34	0xbcaa90df	-0.020821033
35	0x3d62af8e	0.055343203
36	0xbdb38ea0	-0.08767438
37	0xbd987c77	-0.07445615
38	0x3d4b20e1	0.049591903
39	0xbdd8339d	-0.105567195
40	0xbe62ac0c	-0.22135943
41	0xbe421a0b	-0.18955247
42	0x3e13fbc0	0.14451504
43	0x3ddcde87	0.10784631
44	0x3e4f2edb	0.20232718
45	0x3e09be9e	0.13451621
46	0xbb9ad7e5	-0.0047254437
47	0xbde89e72	-0.11358346
48	0x3e1041a8	0.14087546
49	0x3e4b6a31	0.19864728
50	0xbc5a1304	-0.013310198
51	0x3e3b8878	0.18313777
52	0xbdef7cc7	-0.11693721
53	0x3ca426d1	0.02003804
54	0xbb8c0786	-0.004273358
55	0x3c9547e9	0.018222766
56	0xbda56e1b	-0.080776416
57	0x3d7c9155	0.061662037
58	0x3e340672	0.17580584
59	0xbe5a2b92	-0.21305683
60	0xbce16a6e	-0.02751657
61	0xbd3c8e00	-0.04603386
62	0xbe4e1c05	-0.20127876
63	0x3e0ac04e	0.13549921
64	0x3dde0997	0.10841673
65	0x3e02488a	0.12722984
66	0x3e4f397a	0.2023677
67	0xbe50aaa5	-0.20377596
68	0x3c30b0f9	0.010784381
69	0xbd2b5150	-0.041825593
70	0x3e24cab5	0.16092952
71	0x3e3ea76b	0.18618552
72	0xbda95931	-0.08268965
73	0xbe2bdf9b	-0.16784517
74	0x3cdb226b	0.02674981
75	0x3e24db9c	0.160994
76	0x3e34a80e	0.17642233
77	0xbc87b5f5	-0.016566256
78	0x3d33a984	0.043862835
79	0xbd1feea8	-0.03904596

weight f4 [1, 20]
0	0xbdd67499	-0.10471458
1	0x3e618487	0.22023211
2	0xbde28564	-0.110605985
3	0xbc4d6c4b	-0.012538026
4	0x3e385aae	0.18003342
5	0xbd606f8b	-0.054793876
6	0x3e0dbde6	0.13841972
7	0xbd451c1e	-0.048122518
8	0xbd32702f	-0.043564018
9	0xbdc40fb1	-0.095733054
10	0x3ca178e7	0.019710971
11	0x3e5aecbd	0.21379371
12	0xbe26f855	-0.16305669
13	0xbd277a08	-0.040887862
14	0xbdff557e	-0.12467478
15	0xbde2881d	-0.11061118
16	0x3d532a42	0.051553972
17	0xbdb3ddda	-0.08782549
18	0x3e27f835	0.16403277
19	0x3e258c6b	0.16166846
